Project/model.pt (torch_old, 762998 bytes, 8 tensors)

layers.0.0.weight f4 [20, 4, 10]
00000000: b2aa 88bd b2de a93d 549f f63d 28d9 03bd
00000010: c841 353c c3ad 59bc d55e 95bd 2b6f b5bb
00000020: 1be8 12be 2b80 d73d 7e38 25be ea00 f23c
00000030: dcf5 72bd bf52 eabd b105 fabd 2a96 96bc
00000040: 8085 21be 7c0f ddbd 8f29 473d 9427 933d
00000050: 3157 59bb 9149 0b3e f19c 2c3d 4fdb 0c3e
00000060: 1160 343e c0ec ffbd 15cd ad3b 75ba d33c
00000070: 60cf dc3c 8033 a43d b51a 023e 8f32 7dbc
00000080: eb49 fa3d dba1 d93c b278 88bd 6fc7 243d
00000090: 4b34 813d e8c3 da3d d0ad aebd 7522 e2bd
000000a0: 217c 8e3d cb89 dd3d 8a84 453d 545c 073e
000000b0: b618 dc3d cb40 eb3d 6bf7 003e 2701 663d
000000c0: e9c4 753d 4165 3c3c d0db 9abd a17b 04be
000000d0: 63ab 323d 5362 803d c8f6 9d3d 9e99 00be
000000e0: 8c9e b13d d741 223e 231a f63c c8ac 8abd
000000f0: 889b 1cbd 3159 843d cfbb 14be a093 7dbd
00000100: e4f9 c3bd a9d7 bd3d 517d b5bd 8a15 edbd
00000110: f6b5 ee3d cd05 e73d 297e 683d b838 ccbd
00000120: 92c0 1dbe 4fa6 7bbb b2a3 0bbd 2089 e53d
00000130: be06 45bd 4fc2 d2ba 3f0c 0b3e 0df3 283c
00000140: 8f89 153d 4649 a3bc 6206 d93d 247a dfbc
00000150: c03e b1bd 2eeb a7bd 660f 14be dbe2 d5bd
00000160: fdcc 473d a09d 243d eec8 cbbd 61ee 033e
00000170: efc6 a03c 5211 093e 49ea c8bd 6740 a6bc
00000180: 5ac6 5abd dc14 bebb 9db8 abbd c05a 8b3c
00000190: 7d98 55be f53e b0bd a48d 63be 98b2 2dbe
000001a0: f8c1 30be a601 fbbc c095 dfbd 97e4 3e3c
000001b0: 4dda 18be 338c 4dbd 95e6 da3c 0cf9 d6bd
000001c0: acad d4bb d38e 233c 818f e03c a4e1 0f3d
000001d0: 8121 813d f576 013c cecf 893d 4f26 bebd
000001e0: b574 2fbd 77db 1bbc 9fce 1dbe 7ac7 b7bd
000001f0: ba76 3e3d 69d4 c13d f735 86bd 6dcd e63d
00000200: 1c1d 573d 1fd1 b9bc 2720 da3d e12b 233e
00000210: 8fc7 253b a56e 163e 1875 62bd 1b6f 1fbd
00000220: 9a26 863d cafb 0e3e a2f2 423d 402f 28bd
00000230: 3756 42bd 74c5 da3d 0b84 323d 537f 98bd
00000240: 50c9 b63c 7d37 30bd 75fb 0c3e b542 ae3d
00000250: 2143 c1bd 1959 2d3c d586 513d fc6c a9bd
00000260: a1e8 e6bd edd5 8a3d d2b0 ce3d 73e5 103e
00000270: 417c cbbd faaa 743d 0ec4 f33d 202c febd
00000280: ecf3 473d c70b 00be 2908 323c 5ce6 01bb
00000290: 57f6 053e e5ff 333e 21df 503d 70f3 353e
000002a0: 3785 f3bd 5fdd bbbd 0a34 97bd 34e4 24be
000002b0: f74a 8dbc d970 52bd a434 c33d f32c 63bd
000002c0: 072e 013e 465c 00be 581a 053e 73ae bbbd
000002d0: 635a 15be 8416 4bbe 0b24 4e3c e234 cb3d
000002e0: 2fb8 573d ee56 b7bd b2f5 98bd 1577 a7bd
000002f0: b6b9 f8bd 51c0 98bd ab29 153e cfb7 99bd
00000300: a4e1 57bd 30f4 4a3d 8fd2 033e c2fd a83c
00000310: a0e5 023d 45c4 0fbd da23 c2bd 4640 b03d
00000320: 07cf 723d 912e 53bd f440 413e ce08 0bbc
00000330: 0378 193e 7aae 01bd be0b 25bc 2bd9 4dbc
00000340: 4af1 053e a9e7 a23d 6537 9e3d 56a4 da3d
00000350: b12d 1c3e ae94 103e c435 943d d0f4 89bd
00000360: fec7 893d ce70 9dbd 16b5 813b cb0e 4cbd
00000370: e161 1a3e a700 20be ec06 0cbe 1687 84bc
00000380: 7b59 123c 992a 62bd ec56 b1bc 8d2d 473b
00000390: 15fe ab3c e769 04be bf15 9d3d 06e1 e73d
000003a0: d647 343d 108b c6bd fd29 d7bd 0be3 aebd
000003b0: 0e7b 4e3c 9a79 39bd 808b 81bd f9c3 ec3d
000003c0: c2f0 8cbc 43f8 20be ca8b 013c 315f 13be
000003d0: 21c6 2bbe c6ae 153e bc9f c73d 3140 f6bd
000003e0: 85db 3b3d a94c 9f3d 16de bf3d 7764 f23d
000003f0: 8aa0 8ebd 0872 bebb 0f4b ebbc 1e7c 9bbd
-0.066731825 0.08294429 0.12042108 -0.03218952 0.011063047 -0.013286057 -0.072934784 -0.005536934
-0.14346354 0.10522493 -0.16134831 0.029541451 -0.0593165 -0.11441564 -0.12208117 -0.01838215
-0.15773582 -0.10793969 0.048623618 0.07185283 -0.0033163542 0.13602282 0.04214186 0.13755535
0.17614771 -0.12496328 0.0053039887 0.025845746 0.026954353 0.08017635 0.127055 -0.015453949
0.1222113 0.026566437 -0.06663646 0.040229257 0.06308802 0.106818974 -0.08529246 -0.110417284
0.069572695 0.108172975 0.048222102 0.13218814 0.10746901 0.11486968 0.12594382 0.056153443
0.06000224 0.01149875 -0.07561457 -0.12937786 0.04362048 0.06268754 0.077130854 -0.125586
0.086728185 0.15845428 0.03004176 -0.06771237 -0.038234264 0.064623244 -0.14524768 -0.061908364
-0.09569147 0.092696495 -0.08861793 -0.11576374 0.116558 0.11280403 0.05676094 -0.09971756
-0.15405491 -0.0038398688 -0.03409166 0.11207795 -0.048102133 -0.0016079637 0.1357889 0.010311854
0.03650814 -0.0199324 0.105969205 -0.02727992 -0.08654547 -0.08199154 -0.14458999 -0.1044366
0.048779476 0.040189385 -0.09950434 0.12883903 0.019626109 0.13385513 -0.09810311 -0.020294381
-0.05341182 -0.0058008265 -0.083848216 0.017011046 -0.20858951 -0.08605758 -0.22222 -0.1696266
-0.17261493 -0.030640434 -0.109172344 0.01165118 -0.14927025 -0.050182533 0.026721278 -0.10496721
-0.00649043 0.009982782 0.027412178 0.035127297 0.063052185 0.007901897 0.06729089 -0.092846505
-0.04283591 -0.009512774 -0.15410851 -0.08973594 0.046499945 0.09464342 -0.06553262 0.112696506
0.052517995 -0.022682725 0.10650664 0.15934707 0.0025295948 0.14690645 -0.05528745 -0.038924318
0.065503314 0.13963237 0.047594674 -0.041060686 -0.047445502 0.106821924 0.043582957 -0.0744616
0.02231279 -0.043021668 0.13767798 0.08508817 -0.09436632 0.010580325 0.051153976 -0.0827274
-0.11274839 0.06779084 0.100923195 0.14150028 -0.09935809 0.05973337 0.11902629 -0.1241076
0.048816606 -0.12504493 0.010866203 -0.0019821143 0.13082252 0.17578085 0.050994042 0.17768645
-0.11890643 -0.091730826 -0.073829725 -0.16102678 -0.01724766 -0.05137715 0.09531525 -0.05546279
0.12615214 -0.125352 0.1299833 -0.09164133 -0.14585261 -0.19832808 0.0125818355 0.09922196
0.052665886 -0.089521274 -0.07468738 -0.0817701 -0.121447966 -0.074585564 0.14566676 -0.07505762
-0.052705422 0.04954928 0.1287329 0.020628814 0.03195727 -0.035099287 -0.094794944 0.08606009
0.059279468 -0.05155808 0.18872434 -0.008485986 0.14987187 -0.031660534 -0.0100736 -0.012563984
0.13080326 0.07954342 0.077254094 0.10675876 0.15251805 0.14119217 0.072368175 -0.067361474
0.067275986 -0.076875314 0.0039583547 -0.049818795 0.150764 -0.15625249 -0.13674515 -0.016177695
0.008932467 -0.055216406 -0.021647893 0.003039214 0.02099518 -0.12931024 0.07670163 0.11322217
0.04401382 -0.09694493 -0.105060555 -0.08539399 0.012602581 -0.045281984 -0.06325436 0.11560816
-0.017204646 -0.15719704 0.0079068635 -0.14391781 -0.16774799 0.14617452 0.09747264 -0.12023962
0.045863647 0.07778294 0.093685314 0.118355684 -0.06964214 -0.0058119334 -0.028722314 -0.07592033

layers.0.0.bias f4 [20]
00000000: 862d 81bb 620f 0d3e c2a6 583d e030 0f3e
00000010: 102f 703d acd5 113d 0b9e 843d 5ff2 863d
00000020: 0441 30bd cb2d bf3d a2c3 1a3e 29d3 98bd
00000030: 479f 11bd 0ab2 1a3d 4ae6 913d 8ba7 8fbd
00000040: 187d 08bd b9a8 3f3d 3663 f03d cdf9 16bd
-0.0039421944 0.137754 0.052893408 0.13983488 0.058638632 0.035604164 0.06475457 0.06589197
-0.043030754 0.09334906 0.1511369 -0.074621506 -0.03555229 0.037767448 0.07124002 -0.07014378
-0.033322424 0.046791766 0.11737673 -0.036859322

layers.1.0.weight f4 [40, 20, 10]
00000000: f749 723c deab 18bc fe44 4f3c c3db 753d
00000010: 17e4 713c 18c6 8b3c 099d 2b3d 3eb1 763d
00000020: dcc1 9f3d 51c9 d8bc f9cf 703c 9848 c53b
00000030: 9baf 933d 153d 213d 47f4 083d 974f 1fbd
00000040: bae2 333d 9fa1 81bd bf64 113d 1737 c6bc
00000050: 0c0d 10bd 8446 c4bc f71b 2e3c 1ac6 61bd
00000060: 99aa e2bb 35dc 14bc 119b bdbc a428 a13d
00000070: 2274 ac39 5414 95bd 3254 cabd da1c 6dbd
00000080: cc4d 87bc eb11 2dbd ae7f 65ba 8c1c 62bd
00000090: 30d8 91bd 95cb c4bd 934c 08bd bba1 61bc
000000a0: c0e4 7cbd 2790 b03a 872c 53bd f292 49bd
000000b0: 11a0 7cbd 32f4 b23c 767e e33c 267c 82bc
000000c0: 20dd 0abd f41b 6b3d aed8 debd faab c2bc
000000d0: 1a99 1fbc aabe 2fbc c220 36bd bb59 873d
000000e0: 2eeb 8cbd 4e95 d1bd a8fe 96bd b196 31bc
000000f0: b917 97bb 5562 e53c 0b84 63bd f785 b0bd
00000100: 906b 3fbd d578 a4bd d4f9 a43c ca4a 523d
00000110: 3f3b be3b aaaa af3a 4e8c 50bd a21d 55bc
00000120: 5fca 38bd eb7a 533d 2bcb 74bd 352a aebb
00000130: c9d2 b63c 6fe0 7e3c 1022 a1bc 0a29 863d
00000140: 103c 3bbd 0fd8 b8bc 0308 9abd d2f1 8cbc
00000150: 6259 013d 2c15 2e3d a235 3d3d e88b 973d
00000160: 1318 883d e37a 98bb c6db eabc 51f9 afbd
00000170: e3a8 3dbd 0158 b33d e72d d73c 286f a73c
00000180: fc3c e93d c6db 64bd 0cfd 253c caa1 b9bd
00000190: c6b2 86bd 1ffd adbd e24f 193d 64b5 96bc
000001a0: c5b5 3b3d ed5b 7ebd 3d54 c4bc 3eb1 ef3c
000001b0: bdcd a8bd 5c18 bbbd 7463 23bd bcba 863d
000001c0: 63cd bdbc 5ccf 71bd 1b19 05bd 4621 3f3d
000001d0: 9620 863d 8457 473d 7cdc 653c 3f97 843d
000001e0: 3d9c 18bd 0b8f 8abd eefe b6bc a988 163d
000001f0: f1ff 35bc 9f80 f3bb 1c0d 143d a2bb 3b3d
00000200: a2d0 093d 5d0f 7cbd 68d3 7cbd 56f9 02bc
00000210: 8d30 02bd 6855 89bb 2933 c5bd f448 173c
00000220: 5025 88bd 217a 1d3d 99f4 c33c 8249 2d3c
00000230: c78e 3e3d aff2 2ebd e6a3 bf3b c4d9 953d
00000240: c11d f0bc 98eb 1e3d c127 593d c423 38bd
00000250: 0e82 2abd f8e4 a73b 5998 2b3c 8ede 963c
00000260: 3da3 1cbd bbc8 d0bc 80e3 09bd 1b98 4dbd
00000270: ef14 3f3d c070 85bd 988b 43bc 0a60 d3bb
00000280: 415b 08be 4edb c3bb 4082 fabc a08b 12bb
00000290: 7f4e d2bd a6b4 60bc 3c74 9fb9 10f2 12b9
000002a0: 788b f9bc fbe7 9fbd 9614 a9bc e1dd 4cbd
000002b0: 5cab 0abc 163f 98bd 179e ec3b 19fc b93c
000002c0: 907b f3bc ebe4 2dba 81eb dcbc 8c2e 2e3d
000002d0: 478f b3bb fe6f 923d 8266 753d e920 643d
000002e0: da5c 123d 5e86 7dbc fc11 3abd 71f3 2cbd
000002f0: 5e99 84bd 05ef 75bd a101 293d 3516 80bd
00000300: 31a0 473d 7c00 61bd 454c bbbc 16f4 11bd
00000310: 2934 d5bc b8ff 3b3d 0eff 6b3d 0259 53bd
00000320: 8bcc 3d3c 62a4 ecbc a512 d8bc 336d cabc
00000330: 3909 163b 861f d8bc 8472 27ba 0ea9 b3bb
00000340: 0de1 bdbd 74f2 1abd 705a 553b 96fe b73c
00000350: e6cd 6c3d dc5a 6b3d 1464 b4bc 60c8 5ebd
00000360: 3166 643c 3dba bb3c 4776 723d 6254 5a3d
00000370: 1dfe 50bb 4bd8 833d 9df3 163d 3879 ad3d
00000380: 2bfb b7bc a704 87bd 0b01 c83c efc4 90bd
00000390: 9eed d5bd b617 92bc 2730 1dbd c165 cf3c
000003a0: 5932 9a3c c4ca 39bd 72ca 143d c1b1 383b
000003b0: ea76 a13c e7c7 dc3c 6e08 d0bb f110 e23b
000003c0: bdf0 b2bc d9b0 5a3d 2f87 6c3d 407c 03bd
000003d0: 507a b33d d538 d83c 3ba5 fb3c 4f41 083d
000003e0: 7d2e 1abd dbf7 30bd 2097 513d 2d03 893d
000003f0: b043 263d 8893 c63c b4e4 c63c 2336 863d
0.014788142 -0.00931832 0.012650726 0.060024034 0.0147638535 0.017062232 0.041897807 0.060227625
0.078006476 -0.026463183 0.014698022 0.0060206167 0.072112285 0.039364893 0.033436086 -0.038894262
0.043917395 -0.06329655 0.03549647 -0.02419619 -0.035168692 -0.023959406 0.0106267845 -0.055120565
-0.0069173095 -0.009085705 -0.02314523 0.0786908 0.00032892922 -0.07279268 -0.0987934 -0.057888843
-0.016516589 -0.042253416 -0.00087546825 -0.055203006 -0.071213126 -0.09609143 -0.033276152 -0.01377147
-0.06174159 0.0013470695 -0.051556136 -0.049212404 -0.06167609 0.021844957 0.027770262 -0.01592834
-0.033902287 0.057399705 -0.10881172 -0.023763645 -0.009741092 -0.01072661 -0.044464834 0.066089116
-0.068807945 -0.10233556 -0.073727906 -0.01083915 -0.0046109823 0.02800099 -0.055545848 -0.08619302
-0.04673344 -0.080308594 0.020138659 0.051340856 0.0058054025 0.0013402302 -0.050915055 -0.013007553
-0.04511487 0.051630896 -0.05976407 -0.00531509 0.022317307 0.015556439 -0.019669563 0.06550796
-0.045711577 -0.022563962 -0.07521059 -0.017205153 0.031579383 0.04250066 0.046193726 0.07399732
0.06645217 -0.004653321 -0.02866925 -0.08592475 -0.04630364 0.0875702 0.026267005 0.020438746
0.11388585 -0.055873655 0.010131132 -0.09064062 -0.06577067 -0.08495545 0.037429698 -0.01839704
0.045827646 -0.062099386 -0.02396595 0.02925932 -0.082423665 -0.091355056 -0.039889768 0.065785855
-0.023169225 -0.059035644 -0.032494646 0.04666259 0.06549184 0.048667446 0.014029618 0.064741604
-0.037258375 -0.067655645 -0.022338357 0.036751423 -0.0111083845 -0.0074311043 0.036145315 0.045833237
0.033646233 -0.06153809 -0.06172505 -0.007994017 -0.031784583 -0.0041910894 -0.09628899 0.009233702
-0.06647742 0.03844655 0.023920344 0.010576608 0.04652288 -0.04271191 0.0058483956 0.07316926
-0.029311063 0.0387989 0.053016428 -0.044955984 -0.041627936 0.0051237307 0.010473334 0.01841667
-0.038241614 -0.02548634 -0.033664227 -0.050193887 0.046650823 -0.06515646 -0.011935137 -0.0064506577
-0.1331606 -0.005977071 -0.030579686 -0.0022361055 -0.10268878 -0.013714945 -0.00030413445 -0.0001401382
-0.030462012 -0.07807919 -0.020639699 -0.050016288 -0.008463707 -0.07433908 0.007220994 0.022703217
-0.029722005 -0.00066335377 -0.026967766 0.04252486 -0.0054797265 0.07150267 0.059912212 0.055695448
0.03573308 -0.01547393 -0.045427307 -0.04222435 -0.06474565 -0.0600424 0.04126132 -0.06254236
0.048736755 -0.054932103 -0.022863517 -0.03563317 -0.026025848 0.04589817 0.057616286 -0.051598556
0.011584411 -0.028886978 -0.026376078 -0.024710273 0.002289368 -0.026382219 -0.00063876086 -0.0054827994
-0.09271441 -0.037828878 0.0032555126 0.022460263 0.057813548 0.057459697 -0.022020377 -0.05439031
0.01394038 0.022915954 0.05919483 0.05330313 -0.0031889745 0.06437739 0.03685342 0.08470386
-0.022458633 -0.06592684 0.02441456 -0.07068812 -0.104457125 -0.017833572 -0.038376 0.025317075
0.018822836 -0.045359388 0.03632588 0.0028182121 0.019710023 0.02695079 -0.006348661 0.006898992
-0.021843309 0.05339131 0.05774611 -0.032100916 0.08763564 0.026394287 0.030718436 0.033265408
-0.03764199 -0.043205123 0.051169515 0.06690059 0.040591896 0.02424027 0.024278976 0.065532945

layers.1.0.bias f4 [40]
00000000: 52cc 813d ef50 30bc 8c00 26bc 7254 b93c
00000010: 075e e4ba d860 873d 9ae4 103d 13ff 28bd
00000020: 2c6c c5bc f101 79bd ca7a 593c c478 02bd
00000030: 88fd 8ebc ca81 4cbd 02c7 913d 3927 39bd
00000040: 49ec c9bc 8274 2fbb 58b3 fa3c 8ee7 113d
00000050: b2ec 393d f60f de3b ee1e f83b 1f52 593c
00000060: 5725 1c3c 423b 86bc 0cae 863d 7510 453c
00000070: e3a1 edbc 95a8 65bd cb6a d3bc ed14 053d
00000080: de71 7b3d ffdd 523b 2cc1 ebbc 4f7c 833d
00000090: 6b82 21bd 5dcc 85bd 5085 463c d0c3 e4bc
0.06337799 -0.010761484 -0.010131966 0.022623274 -0.0017423042 0.06610268 0.03537426 -0.041258883
-0.024099432 -0.060792867 0.013273904 -0.031853452 -0.017454877 -0.049928464 0.07118036 -0.04520342
-0.024648802 -0.0026772325 0.030603096 0.03562122 0.045391746 0.006776805 0.0075720465 0.013264208
0.009530387 -0.016385678 0.065761656 0.012027849 -0.029007858 -0.056068975 -0.025807759 0.03249066
0.06138789 0.0032175777 -0.028778635 0.06420194 -0.039431017 -0.0653312 0.012116745 -0.027925402

layers.4.weight f4 [500, 360]
00000000: b36e 83bb 36a0 c43a ab48 1abd 6844 4d3d
00000010: 5950 453c 9d8d 88bc 1c0c 023c 769a 45bd
00000020: 38e3 90bc 14e6 de3c eafe 1fbd 03c7 073c
00000030: 2dd1 573d f9da ca3b 22d8 7e3c e502 bf3b
00000040: 091e 8d3c a589 36bd fb4f 593d aad8 d83b
00000050: a7e6 68bd 1627 2c3d ccaf 2dbd 817c a8bb
00000060: 577e 9cbc c734 7e3c 7d68 c03c da40 41bd
00000070: f2b8 95ba 9beb b83c d783 1cbd d6f3 0cbd
00000080: 9bd7 3bbd 868f fe3c 9859 7f3c aa9b 29bc
00000090: 2038 ee3c 02ae 29bc 3d03 46bb e841 15bd
000000a0: f5ff 3c3d 814f 4a3b 2190 0f3d 2708 2e3d
000000b0: 9423 133d bbd0 2fbd 7d6a 00bd 0d7a 8cb9
000000c0: 4517 173d b98f 1d3d ec82 433d 267a 933c
000000d0: 4a1a 4e3d 4974 813c 3504 dcbc d1a0 2a3d
000000e0: a428 b23c 9bd4 afbc 588b 563d cb22 213d
000000f0: cb2d 473d 95c9 02bd dde8 2fbd 6b20 ce3b
00000100: 4ccf 2a39 c509 bd3c c635 3bbd 74cc 7e3c
00000110: 19ec 0f3d c317 a43b c37d 46bc b2bc 20bd
00000120: dc77 04bd c795 1d3d 7839 133d 4300 b5bc
00000130: cf85 463c 9db5 aa3c 4bc1 a33b f3b0 0a3c
00000140: a1fa 27bd 0a2a 343d 1bca 41bb 41af 03bd
00000150: 26e4 323d 719c 0f3a bf12 863c 426e 9b3c
00000160: 859a ecbc a154 df3c 595f b73c e43b 2ebc
00000170: 3136 ea3c 156c 51bd 9296 373d 954c 783b
00000180: 6726 583c 3407 553d 400c c6bc f24b 193c
00000190: 5c30 273d b4d3 613c 0296 7dbc 8789 fcbc
000001a0: c675 963c 8dda 46bd e8c7 cbbc ad89 38bd
000001b0: 1471 abbc fccd 2ebd 22e0 1dbd d8d5 223d
000001c0: 57b7 e73c e434 bf3b 33db c13c d3cf 0dbd
000001d0: 35ed 18bd a2f3 21bd 914d ab3c 8f7e 2ebd
000001e0: 46e2 1ebd a150 a73b 6402 09bd 89c7 c63b
000001f0: d96b 473c f142 1d3c 1c5a 953c 6444 a0bc
00000200: fcfd 93b9 ae76 4e3d 974c 15bd 7033 c33c
00000210: 3163 ef3c 9ba5 28bd dd1f c9bc 35ef 7fbc
00000220: 8312 1f3c ac3b 5ebd e19d 08bd bb4b d83c
00000230: f9c9 31bd d4d0 58bc 0a62 10bd 89f9 293d
00000240: 6359 b43c 8b82 3ebd acbe 0a3c a420 353d
00000250: 4c20 cf3c b338 88bc fdc1 873c f11f 0cbd
00000260: fbf3 203d 19fa 2bbd 5329 643d f985 2c3d
00000270: 48a2 ef3c e2ac e03c 9654 67bd 3f1d 9ebc
00000280: d672 fdb9 edc6 1cbd d385 c23b 6b16 823b
00000290: 9a62 16bc 2777 29bb 91ec 173c 8580 5a3d
000002a0: f727 d8bb fe11 5f3c 9ef6 523b a35a 0d3d
000002b0: e95d 25bd ef57 22bd 77fc b0bb c453 ff3c
000002c0: 1b3b 0d3d 2fe8 283d 593a 49bd d270 d7bb
000002d0: ecfa 83bb 9175 303d 5d5b 093d 320c 73bb
000002e0: 35c2 7dbc 14d1 ac3b f442 0bbc 499b 34bc
000002f0: 8c31 06bd 2ed9 45bc 1bf0 103b 29d9 2a3d
00000300: 1ccd a7bb a4cd fdba cd42 ef3a bcee e1ba
00000310: 3892 70bb 74fa 97bb 523b 163c 18d8 6c3d
00000320: 5932 d6bb f154 00bd 8813 3a3c 5978 cfbc
00000330: 6f75 fc3c d569 d2bc 5e16 cd3c 60a6 bb3b
00000340: 9a5b 48bd 5ec7 27bc e016 cb3b 10c2 33bd
00000350: f49e c3bc da51 1a3d 9812 233d ebd2 953b
00000360: 8db3 ae3c 2665 3d3c cf58 dcba a137 50bd
00000370: 57e0 eebb 6cb6 16ba f9c9 05bb 3ca9 8cbb
00000380: 19b7 b33c 28f8 b2bc b3f3 15bd 7d27 01bd
00000390: b573 b1bc cc87 54bd 6377 d9bc 2b74 f53a
000003a0: 3cea 74bc f57b 1f3d ad1e 4abd 0251 79bb
000003b0: c2cc 003d 876e 1dbd 7e88 b4bc 9228 46b7
000003c0: e222 f1bb 7268 ffbc 7319 633d e7dd 533c
000003d0: b5cb ca3c 4a70 203d 841a fbbc 0230 113d
000003e0: a3d9 1c3c 2ccf 3cbd a8d2 6c3c 95af fdbb
000003f0: 3585 373d 7ec4 803c 4187 563d 76d4 b1bc
-0.004010999 0.001500136 -0.037666958 0.050114065 0.012043082 -0.016669089 0.007937457 -0.04824301
-0.017686471 0.02720932 -0.039061464 0.008287194 0.05268972 0.0061906544 0.01555446 0.0058292025
0.017226236 -0.04456486 0.05305479 0.0066176252 -0.056860592 0.042029463 -0.04240398 -0.005141795
-0.019103212 0.015515513 0.023487324 -0.047180988 -0.0011422916 0.022573283 -0.03821167 -0.034412228
-0.045859914 0.031074297 0.015585326 -0.010352055 0.029079497 -0.010356428 -0.0030214333 -0.036439806
0.046142537 0.0030870142 0.03504956 0.042488243 0.0359226 -0.04292367 -0.031351555 -0.00026793816
0.036887426 0.038467143 0.04773228 0.01800258 0.05031804 0.01580252 -0.026857475 0.041657273
0.021747895 -0.021463683 0.052378982 0.03933982 0.048627656 -0.031930525 -0.042946685 0.0062904856
0.00016289687 0.023075948 -0.04570558 0.015551675 0.03513727 0.0050077154 -0.012114945 -0.039242454
-0.03234087 0.038472917 0.03594348 -0.022094851 0.012116863 0.020838553 0.0049974076 0.00846504
-0.041010503 0.043985404 -0.0029569927 -0.032149557 0.04367461 0.00054783287 0.01636636 0.018973473
-0.028882274 0.027262034 0.022384332 -0.010634396 0.028590294 -0.051128466 0.04482133 0.0037887443
0.01319275 0.052008823 -0.024175763 0.009356486 0.040817603 0.013783384 -0.015477659 -0.030827297
0.018366706 -0.04854827 -0.024875596 -0.045053173 -0.020927943 -0.04267691 -0.038543828 0.03975472
0.028285665 0.0058351625 0.023664093 -0.034622025 -0.037335593 -0.039538987 0.02091101 -0.042601164
-0.03879001 0.0051060473 -0.033449546 0.006066267 0.012171709 0.00959848 0.018231444 -0.019563861
-0.00028227258 0.05040615 -0.036449995 0.023828238 0.029222103 -0.04117356 -0.024551326 -0.015620996
0.009709003 -0.054256126 -0.03335369 0.026403299 -0.043405507 -0.013233382 -0.035249747 0.04149774
0.02201528 -0.046511214 0.008468311 0.04422058 0.025283955 -0.016628599 0.016571993 -0.03421015
0.039295178 -0.04198656 0.055703472 0.042119954 0.029252186 0.027426187 -0.05647715 -0.019301055
-0.0004834148 -0.038275648 0.0059363632 0.0039699576 -0.009178782 -0.0025858374 0.00927271 0.053345222
-0.006596561 0.0136151295 0.0032190452 0.034510266 -0.040372763 -0.03963464 -0.00540119 0.031167872
0.034480195 0.041237053 -0.04912791 -0.0065747285 -0.004027715 0.04308087 0.033534396 -0.0037086126
-0.015488197 0.0052739475 -0.00849985 -0.011023351 -0.032762095 -0.012075705 0.002211577 0.041711006
-0.0051208865 -0.0019363654 0.0018254161 -0.0017237286 -0.0036708247 -0.0046380106 0.0091694165 0.05782327
-0.0065367636 -0.031331006 0.011357196 -0.02532594 0.030817715 -0.02568523 0.02503508 0.0057266206
-0.048915483 -0.010240404 0.0061977953 -0.043886244 -0.023879506 0.037675716 0.039812654 0.0045722625
0.02132585 0.01155976 -0.0016811135 -0.0508343 -0.007289927 -0.0005749229 -0.0020414575 -0.0042926352
0.021937894 -0.021846846 -0.036609363 -0.0315318 -0.021661619 -0.05188732 -0.026546186 0.0018726637
-0.014948424 0.038936574 -0.04934566 -0.003804267 0.031445272 -0.038435485 -0.02203774 -1.1811166e-05
-0.0073588947 -0.031177733 0.055444192 0.012931324 0.024755338 0.039169587 -0.030652292 0.035446174
0.009573373 -0.046096012 0.014454521 -0.0077418783 0.04480477 0.015718695 0.052375082 -0.021707755

layers.4.bias f4 [500]
00000000: 3c1f 33bd 4abb 9abc df02 aabc 64ca 263c
00000010: 21a1 033c 5c9c 8b3c 414c b63a 5bc4 283d
00000020: f59b 19bd a437 80bc ad6a b4bc ef9f 893c
00000030: 1a01 2fbd 003a d0bc 3271 99bc 4172 7dbc
00000040: 4309 58bd 7f4f 223c 2d06 3b3c 8c53 48bc
00000050: 0881 cbbc badf a5bb 6d0f 51bd 73ef a8bb
00000060: 73d3 4fbd 6896 f43c 9804 383d 309f 083d
00000070: 13ed 46bc 1549 2fbd d04e 443d 6256 1dbc
00000080: 111c a53c 2256 403c 7330 26bd fb2e 4c3d
00000090: 11f9 c03a d06a a2bc d635 cbbb 4d51 023d
000000a0: 6ec4 9ebc 87f7 39bc fa02 5abc 5ec6 083d
000000b0: 81a9 cfbc 8e32 963c 1961 313b fa26 6f3c
000000c0: 0976 273d 1770 23bd 0a74 7c3a dbd4 2f3d
000000d0: ed33 9bbc 726f 60bc de2d 38bd e0a3 1c3c
000000e0: e3e0 1f3d 9fbb 5f3c 83dc 89bc 2324 24bd
000000f0: 810b 7dbb aa8f dbbc 0eeb d13c c7c6 393d
00000100: a536 1f3d b098 173d db52 c139 029f 1bbd
00000110: c304 c63c bf22 153d 6178 b2bc 8c86 4e3d
00000120: b3bd aabb 1b73 3ebd 0bb6 0b3d 9e55 333d
00000130: 4a31 12bd 3b08 14bc 0281 30bd ac80 08bd
00000140: 1600 e43c 7806 953c 4e77 11bd 9fcc c53c
00000150: 7ac6 dcbc efb6 603b d2e9 e23c 5722 99bc
00000160: 576b 533c c164 fbbc 4967 3f3d e0f9 543d
00000170: 8bd3 803c d1ac 37bd e3d0 ad3c dea2 0ebc
00000180: d48a 523d c069 33bd f1a8 243d 8a04 7c3c
00000190: 6eae ba3c 2484 15bb 7ab1 223d 0674 153d
000001a0: 5c6d d03c 4b22 9fbc e6f3 20bc f594 25bd
000001b0: 6f64 27bc 6783 71bc cc06 c7bc 467c 9cbc
000001c0: f34a 073d 711e 79bc dd36 033d dff1 123d
000001d0: 60fd 28bd 0ae7 003d 60ee 1c3c 1ecf 39bd
000001e0: cddc 003d fa2a ffbc dee4 153d b678 403d
000001f0: bb59 eabc cdd6 31bd 119d 1e3d 8c9c 6e3d
00000200: f1e5 11bd 7ee6 303d cd78 303d 23de 41bb
00000210: ce72 a6bb 639e e83c 5648 79bc 40b7 813c
00000220: b9ad 17bd 2a46 973c 5efd e23c 107a fd3c
00000230: a657 e5bc d765 46bd 501f 7bbc e354 603d
00000240: 52c4 dd3c ef9e fcbc c431 113d cdb8 223d
00000250: add8 a3bc 87e8 3d3d 84c6 ea3c 10eb 87bc
00000260: f163 da3c 8115 a9b9 9544 b93c 3d88 82bd
00000270: b75d 9e3c 0a5c 68bb 51da 68bc ea01 48bd
00000280: 24ec fd3c 0326 ccbc e56f 04bd a439 123d
00000290: aa49 afbb b31d 9f3c 348e df3b 97ac dabc
000002a0: 8432 9e3b b2d1 c23b 5fa6 80bd 6673 533d
000002b0: 6d5e 263d 6774 0e3d 0f4d 91bc 84b9 e83c
000002c0: f31f 29bc 0d38 223d b2f5 2fbd bae1 12bb
000002d0: fead edbc 2ba8 ffbc ab73 003d f371 473c
000002e0: a73f 2abc 2535 d0bc 7812 2a3d 0a55 cf3c
000002f0: 2f77 4dbd f0b6 82bb 97bc 1b3d cb43 3b3c
00000300: edf2 173d 11f9 773d 7d04 c63c 95b9 4fba
00000310: 0764 dfbc e9b8 a83c b8cc c23c 36b9 413d
00000320: 5e34 e8bc 2b72 01bc edca 64bc 324c 823c
00000330: 6fe4 e53b 8131 c93c 40e2 94bc 581c 773c
00000340: 3db5 e73c 46e0 04bd d0e2 043c 0ce9 2a3d
00000350: 85b2 0e3d 6e8b 3b3d 2859 a23c 4bb3 51bb
00000360: 1489 373d 8096 eb3c 8961 b03c 1ecd 1f3d
00000370: 8c9d 683c 8ed0 9f3a 83a4 223c 7759 9cbc
00000380: 2352 343d 2565 2c3d 3ae7 173d e2c4 8a3c
00000390: afba 8a3c 2ac7 26bd 2fbc d43c 724f 623b
000003a0: 4780 273d 8351 95bb efc9 c63c 0cb0 d83c
000003b0: 1c6d 113c 9f08 da3c 96a8 a83c a97e 09bd
000003c0: 3990 c63c c69f 9ebc ce2e 29bd cbd1 23bd
000003d0: c84b 5cbc 2bf4 e1bc fc32 36bc b0b4 823c
000003e0: f53a 083b 3cfa 78ba 0dce 9d3c 3308 50bd
000003f0: 0587 0bbd 5c65 af3c 2729 f9bc 8a64 28bd
-0.04373096 -0.018888135 -0.020753322 0.01018009 0.008034022 0.017042331 0.0013908223 0.041202884
-0.037502248 -0.015651532 -0.022023523 0.016799895 -0.04272566 -0.025418282 -0.018730734 -0.015469135
-0.052743208 0.009906649 0.011415047 -0.01222695 -0.0248418 -0.0050620707 -0.0510401 -0.0051554977
-0.050738763 0.029856876 0.044926256 0.033354938 -0.012141484 -0.042794306 0.047926724 -0.009603115
0.020154985 0.011739286 -0.04057355 0.04984949 0.0014722665 -0.019826323 -0.006201486 0.031815816
-0.019380774 -0.011350519 -0.013306374 0.033392303 -0.02534938 0.018334653 0.0027065931 0.014596695
0.04088405 -0.03990182 0.0009630328 0.042927604 -0.018945659 -0.013698446 -0.044965617 0.009560555
0.039032828 0.013655572 -0.016828781 -0.040073525 -0.0038611593 -0.026801903 0.025624778 0.045355584
0.038870472 0.03701085 0.0003687356 -0.03799344 0.024172192 0.03641009 -0.021785917 0.050421283
-0.005210602 -0.046496492 0.034109157 0.043782823 -0.035691537 -0.009035165 -0.04309178 -0.033325836
0.027832072 0.018191561 -0.03551417 0.024145423 -0.02695011 0.0034288724 0.027699385 -0.018693132
0.01290401 -0.030687692 0.04672936 0.051996112 0.015725872 -0.044842545 0.021217769 -0.008705823
0.051401928 -0.043802023 0.040200178 0.015381942 0.022788253 -0.0022814358 0.039720036 0.0364876
0.025442772 -0.019425532 -0.009823775 -0.04042526 -0.010216816 -0.014740801 -0.024295233 -0.019102227
0.03303046 -0.015205012 0.032034744 0.035875197 -0.041257262 0.031470336 0.009578317 -0.045363538
0.031460572 -0.031148423 0.036595218 0.04699012 -0.02860724 -0.04341774 0.03872401 0.058254763
-0.03561968 0.043188564 0.043083955 -0.0029581867 -0.0050796038 0.028395837 -0.015215 0.01583445
-0.03703091 0.018466074 0.027708706 0.030941993 -0.027995896 -0.048436966 -0.01532729 0.054768454
0.027071152 -0.030837504 0.03544785 0.03972702 -0.02000078 0.046364333 0.028659113 -0.016591579
0.026658984 -0.00032250214 0.02261571 -0.06373642 0.019331796 -0.003545525 -0.014212207 -0.04882995
0.03099639 -0.02492047 -0.032333273 0.0356995 -0.0053493576 0.019423341 0.006822372 -0.026693625
0.0048277993 0.005945408 -0.06281733 0.051623724 0.040617395 0.03477898 -0.01773694 0.028408773
-0.010322559 0.039604235 -0.042958923 -0.0022412376 -0.02901363 -0.031208118 0.03136031 0.012173164
-0.010391152 -0.025415966 0.04152152 0.025309104 -0.05016249 -0.003989093 0.03802165 0.011429737
0.037096906 0.060540263 0.024172062 -0.0007924077 -0.027269376 0.020595985 0.023779258 0.04729577
-0.028345283 -0.007900755 -0.013964397 0.015905473 0.007015757 0.024559738 -0.01817429 0.015082441
0.028284663 -0.032440446 0.008110717 0.041726157 0.03483822 0.045787267 0.019817904 -0.0031997736
0.044808462 0.028758287 0.021530883 0.039013974 0.014197718 0.0012192891 0.009926918 -0.019085629
0.044023644 0.042088646 0.03708575 0.016939584 0.01693472 -0.04071728 0.02596864 0.0034532216
0.04089382 -0.004556836 0.024266211 0.026451133 0.008876111 0.026615439 0.0205882 -0.03356806
0.024238693 -0.019363295 -0.041304402 -0.039994996 -0.013445802 -0.027582249 -0.011120554 0.0159553
0.0020787094 -0.0009497737 0.019263292 -0.05078907 -0.03406431 0.021410637 -0.03041513 -0.041111507

layers.6.weight f4 [2, 500]
00000000: 8d6e d5bb 67cc c5bd 4bea 113e 372e 35bd
00000010: b8c2 28be fbd1 873d 4dfd 863d 6480 c6bd
00000020: a1d9 133d b193 46bd be94 883d c6f6 f0bd
00000030: c447 8ebc 42b1 16bd 278a b5bd 4ea5 073d
00000040: de68 0a3d f76d ad3d 24a8 3cbd 9906 a1bc
00000050: ca07 353d 636e 14bd 4a2c 8c3d f315 b53d
00000060: fe8b 233d e1a3 753d 3c4a 87bd 5426 b83d
00000070: 7b34 b53d 3a36 a93d 4f44 51bd 6551 ffbd
00000080: 42a9 5bbd 5451 9cbd 62dd 363d 0182 acbd
00000090: a7dd e43c ae2f babd 33f8 643d f796 753d
000000a0: 68df af3d 0d15 11be 7cd3 b33d ca0b 43bd
000000b0: ef82 57bd 06fd 9dbd 8d8e 41bd c4ea d63c
000000c0: 4129 51bd 28e8 d0bd 16e5 983d 300e 313d
000000d0: b21b ac3d 09bb 03bd 85a9 3e3d 9c88 ccbd
000000e0: 313f d53d 931f 203e c489 e3bc 4688 e5bd
000000f0: 4618 c13d f46f b53d a774 843d ca31 1dbd
00000100: 68c8 de3d eedc 753b 3b8c d33d 4d05 98bd
00000110: 19e1 363d 166b b23d ca0f 99bd d49e c9bd
00000120: c872 453c 2b33 803d 9e2c 323d 0835 8bbd
00000130: eee3 e3bd 4d84 dfbd 5c6c b13d 1407 29bd
00000140: 7b88 71bd 3b53 2ebd 711c 08bd d0f2 ecbd
00000150: 4369 ea3d 7232 1c3d 8908 ab3d 2bb0 ca3d
00000160: e339 77bd 0679 c03d 8f21 c2bd 7dc1 8ebd
00000170: 5f36 a4bd c213 873d 86c8 e43d d696 dabd
00000180: e147 a13d 7892 8cbd d5a5 623d d029 9bbd
00000190: 3a42 5c3d f52c 9b3d 87de d6bd f4fd ce3c
000001a0: 0edc 853d 1a18 c63d a3b0 73bd e0f1 cf3d
000001b0: c22c 4e3d 4cde 513d 659e 853d 1ab7 963d
000001c0: dea0 c93d d5aa c63c 558a a23d d557 c2bd
000001d0: cb64 84bd 74b0 0abd 48f3 9d3d f840 03be
000001e0: 6e88 c73c 8554 d83c 023a 2c3d 4320 a43d
000001f0: 00dd eb3d b5b2 913d 7f66 383d bb10 8dbd
00000200: 323e b33d a157 a7bd d1f1 8cbd 86cf 9d3d
00000210: 7002 adbc a425 95bd 8a6f a73d 1ce3 f83d
00000220: f304 bcbd e7db 1dbd 7897 97bd 2253 353d
00000230: 7f64 63bd ceba 443d 2e63 b2bd 7391 73bd
00000240: a560 923d 88d3 163e ef35 babd 0418 ebbd
00000250: 50c2 643d 58de 9cbd 7c48 87bd 4d87 293d
00000260: b173 a8bd 98f2 94bd f717 a5bd 3db9 8a3d
00000270: e75c 85bd 3dfa 233d 7f5d 023d 4249 24be
00000280: 76aa ac3c bb3e 46be b3d7 c5bd da3b 15be
00000290: b6e7 123e 389f 30bd be38 bf3d 3cfe 423d
000002a0: 5e3c a73d df7d 8bbd 6b40 1f3e 44a7 c5bd
000002b0: bb94 75bd c599 c93d 5d0c fb3d 126b a2bd
000002c0: 7c68 8abb 29ec 9c3d 179e abbd c8c3 163e
000002d0: a67f a73d 4324 e43d 52c6 acbd 6b97 c23d
000002e0: fc75 ddbd 2dfb 923d f015 adbd f151 9b3d
000002f0: f872 26bb 8ad1 a23d ed55 8fbd e6af bbbd
00000300: 3439 a6bd c01d 71bd d543 be3d fa7d 5a3d
00000310: d05b 153d ba09 efbd 6df1 dc3d 856d a8bd
00000320: 541f b63d 95ef a4bd 14ff c7bd e649 583d
00000330: 5517 b53d 20b9 1d3d 1e91 b3bd 5394 94bd
00000340: 053a c43d 750c abbd 4da8 1b3e 6015 a7bd
00000350: 8ee2 e2bd 68c0 c6bd b7f8 acbd 3a8d 663d
00000360: d421 5dbd f9ac 063c 4522 cf3d bb49 ffbd
00000370: 966f 05be 729d a03d 6dd5 a13d 992f a7bd
00000380: bb4a 4fbd 7399 df3d 5b7a 783d 70f2 cabd
00000390: 18cc 08be 8ee1 a4bd 0407 983d c293 cc3d
000003a0: 8994 fb3d 1e7d 62bd 2c0d 7fbd 12ab acbd
000003b0: f9e9 debd fddb dd3d b862 a33d c64d c73d
000003c0: 9bee 823d cc7f d3bd 6711 b13d af96 b73d
000003d0: 016f afbd 88f0 d2bd 3949 683d 92d5 e5bc
000003e0: aa09 d43d a6d1 533d f05e c9bd b430 b23d
000003f0: b616 9b3d c4df f8bd 5aa8 debd 7cae 8fbd
-0.006513423 -0.09658127 0.14249532 -0.044233527 -0.1648053 0.066318475 0.06591282 -0.09692457
0.03609622 -0.048480693 0.06668995 -0.11765818 -0.017368205 -0.03679014 -0.08864241 0.03311663
0.033791415 0.0846824 -0.04605879 -0.019656466 0.04419688 -0.036238085 0.06844385 0.08842077
0.03992843 0.05997074 -0.06605956 0.089916855 0.088479005 0.08262296 -0.051090535 -0.12466697
-0.053628214 -0.076326996 0.04464472 -0.08423234 0.027937723 -0.090911254 0.055900764 0.059958424
0.08587533 -0.14168186 0.08780572 -0.047618665 -0.052615102 -0.07714276 -0.047255088 0.026234992
-0.051064733 -0.1020053 0.0746557 0.04322642 0.0840372 -0.032160792 0.046548385 -0.09986994
0.104124434 0.15637045 -0.027775653 -0.11207633 0.09428458 0.08859244 0.06467562 -0.03837756
0.10878068 0.0037515718 0.10329481 -0.07422886 0.044648264 0.08711831 -0.07473715 -0.09844747
0.012051292 0.062597595 0.04349958 -0.06797224 -0.111274585 -0.10913906 0.08663246 -0.041266516
-0.05896805 -0.042559844 -0.03323025 -0.1156975 0.11445858 0.038134046 0.08351237 0.098968826
-0.06035794 0.093980834 -0.09479057 -0.06970499 -0.08018183 0.065955654 0.11171059 -0.10673301
0.07875038 -0.06863874 0.05533393 -0.075763345 0.053774096 0.07576934 -0.104916625 0.025267579
0.06536113 0.09672566 -0.059494626 0.10153556 0.050335653 0.05123739 0.06524352 0.073591426
0.09845136 0.024251381 0.07936541 -0.09489409 -0.06464537 -0.033859685 0.07712418 -0.12817752
0.024357047 0.02640749 0.042047508 0.08013966 0.11516762 0.07114164 0.045019623 -0.06887957
0.08752097 -0.08171011 -0.0688206 0.077055976 -0.021119326 -0.0728257 0.08175571 0.12152693
-0.091806315 -0.038539793 -0.07401937 0.044268735 -0.055515762 0.048029713 -0.08710323 -0.059464883
0.0714734 0.1472913 -0.09092318 -0.1147919 0.055849373 -0.07659596 -0.06605622 0.0413888
-0.082251914 -0.072728336 -0.080612116 0.06773613 -0.0651186 0.040033568 0.031827446 -0.1604357
0.021077376 -0.19359867 -0.09660282 -0.14573613 0.14346203 -0.043120593 0.093369946 0.047605738
0.08165811 -0.068111174 0.15551917 -0.09651044 -0.059956294 0.09843782 0.122582175 -0.07930578
-0.0042238813 0.076622315 -0.083797626 0.14723122 0.08178644 0.11139729 -0.08436264 0.09501537
-0.10813519 0.07176814 -0.0845145 0.075839885 -0.0025398117 0.07950123 -0.06998811 -0.09164409
-0.081163794 -0.058866262 0.09290282 0.053342797 0.036464512 -0.11671777 0.10788236 -0.08224014
0.08892694 -0.08053509 -0.09765449 0.05280485 0.08842341 0.038506627 -0.08767913 -0.07254853
0.09581379 -0.08351985 0.1520092 -0.08158374 -0.11078368 -0.09704667 -0.08445876 0.056287028
-0.05398734 0.008219951 0.10113958 -0.12465235 -0.13030848 0.0784253 0.07902036 -0.081633754
-0.050608378 0.1091794 0.060663562 -0.099095225 -0.13359106 -0.08050834 0.07423213 0.0998912
0.1228419 -0.055295102 -0.06226842 -0.084310666 -0.108844705 0.10832975 0.079778135 0.09731631
0.06393167 -0.1032711 0.08645897 0.089642875 -0.08566094 -0.10299784 0.056710456 -0.02805594
0.10353406 0.05171361 -0.09832561 0.08700696 0.07572691 -0.12152055 -0.10871954 -0.07015702

layers.6.bias f4 [2]
00000000: b9e8 3cbd 3376 72bc
-0.04612038 -0.014798689
